task2b_best_frozen.pth (torch, 661387 bytes, 4 tensors)

projection.0.weight f4 [256, 128]
0.030387362 0.030597102 0.11604803 -0.00834369 0.05729972 -0.052776154 0.01194468 0.044465285
-0.13501477 0.010739235 0.047122 0.048798684 -0.042275224 0.097592056 -0.03713785 0.062754676
-0.01652729 0.079988025 0.09173833 0.043038696 0.0527756 0.10107137 -0.05563973 -0.047314856
0.021283263 -0.01036306 -0.033008553 -0.120951585 -0.01880878 -0.15141991 -0.0903367 -0.022056388
-0.040072497 -0.05645828 0.13230017 -0.0580068 -0.076988906 0.17134006 -0.082084976 -0.06261459
-0.12676854 0.14088903 -0.11669515 -0.07145571 0.03848251 -0.027880145 -0.10808266 -0.016993422
-0.10161848 0.10854578 -0.004298731 0.11119267 -0.0381078 0.031323146 -0.046825793 0.0408671
-0.10266226 -0.008104342 0.06263497 -0.08116905 -0.114877425 0.023330372 0.06975932 -0.02355581
-0.022562196 0.025574975 -0.07939785 0.014448397 0.09691163 -0.07890506 0.049916074 -0.020713218
-0.047069468 -0.010644145 -0.12032428 -0.0020220773 0.003129638 -0.044088125 -0.12979439 -0.011294255
-0.09852974 -0.023036802 0.045636673 -0.057989568 0.0037863234 -0.048568543 0.09844374 0.010010339
-0.0031267023 0.06771485 -0.02359442 0.09889487 -0.0806049 -0.0012110582 0.028570954 -0.14391103
0.12461037 0.07007563 0.018380681 0.008290507 0.093765885 0.005956845 0.038764212 0.044357695
-0.019572822 0.11582181 0.021067377 0.08854811 0.008338548 -0.037539337 -0.08774156 0.11679223
0.022927398 0.058827218 0.008816939 -0.07589059 -0.121047 0.07273518 -0.02075093 -0.076031774
-0.11891288 0.024371402 0.03824735 -0.09474219 0.103906155 -0.001846497 -0.05346292 -0.009391165
-0.08690701 0.1063837 -0.06404592 -0.0365349 0.06729647 -0.12634127 0.04142475 -0.096044585
0.07963924 -0.039768834 -0.039028645 0.2112852 -0.031784106 0.09477267 0.042969033 -0.00905624
0.0017986574 0.047969267 0.011447291 0.05465194 -0.05864768 -0.019907717 0.039342713 -0.075933
0.008530609 0.10380271 0.09921382 0.08881766 -0.07061134 -0.005761396 0.08426166 -0.013155189
-0.08105479 0.06178838 -0.037544813 -0.0716208 -0.06697164 0.021961335 -0.057065737 0.037190307
-0.048832066 0.015723407 -0.040399984 0.14254709 -0.06922896 0.12146393 0.06859532 0.034467738
0.049542617 -0.08915259 0.0066717705 -0.027007336 0.05035178 -0.07287043 0.037600122 0.022209438
-0.033735394 -0.028681412 0.0025614414 0.06993755 0.121698804 0.0831995 0.06685384 -0.1128919
-0.103536434 0.04968769 -0.10121368 0.079442464 0.07592804 0.032664236 -0.046938803 0.03030808
0.037457816 0.016880339 0.10180542 -0.044271823 0.05333897 -0.06096955 -0.059351616 -0.00083154155
0.009392252 0.024205394 -0.024515135 -0.034997445 0.02072987 0.13458681 0.022249892 0.004895322
0.0020537453 0.03409059 -0.07856842 -0.024061445 -0.09135958 0.017483912 -0.06269866 -0.08095044
0.057248943 -0.1115454 0.05895164 0.1435441 -0.05389264 0.09862803 0.021295335 0.004480221
0.045036156 -0.16930977 0.04369371 -0.027874796 -0.019949557 -0.054747887 0.07443271 0.07797376
0.06988992 0.017763715 0.09374156 0.14140299 0.01732026 0.017601492 0.052971452 -0.0076020523
0.09600663 0.009848373 0.13410887 0.027068326 0.00392897 -0.06954746 0.15372425 -0.0057738186
00000000: ebee f83c c6a6 fa3c 97aa ed3d f9b3 08bc
00000010: 1cb3 6a3d cf2b 58bd 9eb3 433c 3b21 363d
00000020: 5041 0abe 9ef3 2f3c 0003 413d 21e1 473d
00000030: c928 2dbd 58de c73d dc1d 18bd 8685 803d
00000040: 3d64 87bc c3d0 a33d 4ee1 bb3d 5849 303d
00000050: 3a2b 583d 82fe ce3d 7ce6 63bd 39cd 41bd
00000060: 3d5a ae3c d3c9 29bc fa33 07bd 77b5 f7bd
00000070: df14 9abc d20d 1bbe 7302 b9bd 99af b4bc
00000080: 0f23 24bd cc40 67bd b279 073e 8a98 6dbd
00000090: 5cac 9dbd c573 2f3e 2b1c a8bd 143c 80bd
000000a0: 9dcf 01be 3745 103e defd eebd 5f57 92bd
000000b0: d69f 1d3d e764 e4bc 715a ddbd ca35 8bbc
000000c0: 5a1d d0bd 404d de3d 5fdc 8cbb fcb8 e33d
000000d0: ed16 1cbd b34c 003d 67cc 3fbd 4364 273d
000000e0: 9740 d2bd 13c8 04bc c346 803d f53b a6bd
000000f0: db44 ebbd 561f bf3c f9dd 8e3d 1df8 c0bc
00000100: 5bd4 b8bc 9c82 d13c 579b a2bd f8b8 6c3c
00000110: 9b79 c63d fa98 a1bd cc74 4c3d c4ae a9bc
00000120: eacb 40bd c864 2ebc 936c f6bd d484 04bb
00000130: 9d1a 4d3b c095 34bd d2e8 04be 8a0b 39bc
00000140: f6c9 c9bd adb7 bcbc 85ed 3a3d 7886 6dbd
00000150: f723 783b cfef 46bd df9c c93d 6802 243c
00000160: 5ce9 4cbb 15ae 8a3d 1649 c1bc 6589 ca3d
00000170: 2f14 a5bd 5fbc 9eba a20d ea3c 6a5d 13be
00000180: b933 ff3d d083 8f3d 1593 963c e8d4 073c
00000190: 5408 c03d a331 c33b 39c7 1e3d 6ab0 353d
000001a0: 2f57 a0bc fc33 ed3d 7e95 ac3c b658 b53d
000001b0: 689e 083c d9c2 19bd d9b1 b3bd c430 ef3d
000001c0: 3dd2 bb3c cff4 703d ec74 103c 876c 9bbd
000001d0: 7de7 f7bd 2ff6 943d dbfd a9bc 8cb6 9bbd
000001e0: 9988 f3bd 89a6 c73c 41a9 1c3d 3108 c2bd
000001f0: c0cc d43d 2806 f2ba effb 5abd 67dd 19bc
00000200: 4dfc b1bd b3df d93d 822a 83bd 9fa5 15bd
00000210: bbd2 893d 9b5f 01be 00ad 293d 06b3 c4bd
00000220: e619 a33d a5e4 22bd 80dc 1fbd 265b 583e
00000230: 0d30 02bd 2c18 c23d 4c00 303d a060 14bc
00000240: edc0 eb3a 6c7b 443d 6b8d 3b3c b6da 5f3d
00000250: 8d38 70bd 8215 a3bc d325 213d c382 9bbd
00000260: f8c3 0b3c 8496 d43d 9e30 cb3d 09e6 b53d
00000270: ae9c 90bd 18ca bcbb 6191 ac3d dd88 57bc
00000280: 0e00 a6bd d015 7d3d 97c8 19bd edad 92bd
00000290: 6d28 89bd 42e8 b33c c3bd 69bd dd54 183d
000002a0: 2204 48bd 60ce 803c 747a 25bd ddf7 113e
000002b0: eac7 8dbd 15c2 f83d b47b 8c3d 0b2e 0d3d
000002c0: 33ed 4a3d a295 b6bd de9e da3b 7d3e ddbc
000002d0: ab3d 4e3d 183d 95bd 9602 1a3d 91f0 b53c
000002e0: 202e 0abd 48f5 eabc dbdd 273b 6b3b 8f3d
000002f0: 393d f93d 8064 aa3d abea 883d de33 e7bd
00000300: e90a d4bd 5285 4b3d 1e49 cfbd bbb2 a23d
00000310: 2980 9b3d efca 053d e742 40bd a748 f83c
00000320: 5e6d 193d a348 8a3c 5c7f d03d 5f56 35bd
00000330: f779 5a3d 35bb 79bd ae1a 73bd cffb 59ba
00000340: f6e1 193c 644a c63c f7d3 c8bc 7b59 0fbd
00000350: b0d1 a93c 20d1 093e 6845 b63c f068 a03b
00000360: 2198 063b 93a2 0b3d 7be8 a0bd 821c c5bc
00000370: bb1a bbbd 6c3a 8f3c 2868 80bd 58c9 a5bd
00000380: de7d 6a3d ea71 e4bd 4677 713d 39fd 123e
00000390: 87be 5cbd 7efd c93d 8e73 ae3c d1ce 923b
000003a0: d577 383d 8a5f 2dbe 2df8 323d af59 e4bc
000003b0: 416d a3bc 523f 60bd 2d70 983d b5b0 9f3d
000003c0: 7222 8f3d 3685 913c 93fb bf3d f2cb 103e
000003d0: 38e3 8d3c 0131 903c 98f8 583d a31a f9bb
000003e0: 209f c43d 125b 213c d653 093e 65be dd3c
000003f0: 97be 803b e66e 8ebd e469 1d3e 4d32 bdbb

projection.0.bias f4 [256]
-0.013918087 -0.008455112 -0.040466085 -0.12617894 -0.11557898 -0.14314693 -0.06497533 -0.079447195
0.15845098 0.26827812 0.22940724 -0.010602482 -0.027203063 0.007764655 -0.044395894 0.058348767
-0.058768246 -0.11391258 -0.17148122 0.018241722 -0.08388878 -0.0021521281 0.071758054 0.049745604
-0.07774344 0.023291333 -0.025611112 -0.07392343 -0.02901436 0.047791015 -0.1635914 -0.0068243155
-0.09580721 -0.08003946 -0.017281557 0.023000458 0.18897851 -0.12696223 -0.11524909 0.22504057
0.04325584 0.14982037 -0.036799595 -0.07078839 0.088823356 -0.008099392 0.019028943 -0.08252386
-0.12258203 0.023744851 -0.16401076 -0.12820603 -0.1719067 -0.106675714 0.23032407 -0.10432658
0.22834855 0.12519461 -0.13002309 -0.10633112 -0.06281547 0.22045472 -0.03305945 -0.09812939
-0.15023245 0.116225906 0.034327097 0.008426397 -0.02163573 -0.11499462 0.11606108 0.10809801
-0.14008878 0.024578955 -0.084285565 0.22523916 -0.118620835 -0.06761335 -0.034306385 0.14616364
-0.09740862 -0.06607294 -0.09473614 0.12465429 -0.10027877 -0.02803809 0.10567108 0.083303384
0.18732832 0.091776125 -0.052999396 0.27986148 0.106019996 -0.09222487 0.03715102 0.06488736
-0.048592344 0.011751079 0.042284995 -0.1651153 0.030811528 -0.12864129 -0.058651645 0.027902074
-0.053889588 -0.001040777 0.057960674 -0.049030304 -0.15515248 -0.1278845 -0.004233515 0.20699072
-0.13587599 -0.021376839 -0.087956876 -0.07065584 0.027274666 -0.028467225 -0.10964638 -0.02796652
-0.01895093 -0.15075892 -0.08589855 -0.08721681 0.04254075 -0.08562384 0.057813954 -0.16157155
-0.061409954 0.055712778 0.14530419 -0.056414846 -0.092095666 -0.15669635 0.111685306 -0.030250257
-0.035911683 -0.07166449 -0.075717635 0.12081261 -0.09515911 -0.098346524 -0.06458011 0.082157575
-0.15339805 -0.047469616 -0.08839009 -0.045571588 0.14340398 0.0151266195 0.089920394 -0.03218712
0.078676745 0.1911478 -0.08349806 -0.14784233 0.10299141 -0.106208175 -0.08730575 0.086689204
-0.014081413 0.062065873 -0.15052328 -0.039008148 -0.09781813 -0.14937867 0.013967925 0.12809359
0.2102353 -0.01827634 -0.02121788 -0.073442526 -0.12034541 0.1963356 0.19236782 -0.1461755
0.12587412 -0.002391019 0.08572734 0.03841275 0.0995968 -0.049233217 -0.06818665 0.16655846
-0.007848986 -0.09682886 -0.0133121265 -0.10599706 -0.024954185 0.032805398 -0.14919098 -0.10885977
-0.08055059 -0.13020997 -0.021691754 0.011660436 -0.044472292 -0.12262695 0.08079894 -0.092845
0.14906664 -0.07663306 -0.016560262 -0.21136957 -0.015013127 -0.006760277 -0.01510314 -0.01870412
0.11589287 -0.11158621 0.055170517 0.12309435 0.1333033 -0.09015364 0.09124946 -0.005367929
-0.0146683315 0.07741634 -0.11564231 -0.0829232 0.041130833 -0.17799279 0.0070355586 -0.119693115
-0.0045301663 -0.02864061 -0.039352287 -0.18080558 0.02966316 -0.12705566 0.08534375 -0.06703278
0.1893615 -0.11946619 0.07251892 0.10795581 -0.119103715 -0.08582333 -0.17579089 -0.01947848
-0.065616935 0.09769789 0.032764092 0.02331506 -0.033933017 -0.038013957 -0.13251813 0.028978772
0.017984228 0.09391012 0.06371852 0.276063 0.21278341 -0.000609842 -0.1289542 0.1819879
00000000: b008 64bc 4f87 0abc c4bf 25bd 0d35 01be
00000010: acb4 ecbd 1c95 12be c911 85bd 36b5 a2bd
00000020: f940 223e c05b 893e bbe9 6a3e 08b6 2dbc
00000030: f5d8 debc a66e fe3b 78d8 35bd 1eff 6e3d
00000040: f9b6 70bd 004b e9bd c698 2fbe aa6f 953c
00000050: e1cd abbd b80a 0dbb e3f5 923d 0cc2 4b3d
00000060: f437 9fbd 77cd be3c 65ce d1bc 2b65 97bd
00000070: 86af edbc 83c0 433d 8184 27be 829e dfbb
00000080: 9236 c4bd baeb a3bd 0d92 8dbc 756b bc3c
00000090: 9583 413e 6302 02be b707 ecbd 0971 663e
000000a0: 092d 313d 836a 193e 2cbb 16bd 81f9 90bd
000000b0: 05e9 b53d 50b3 04bc 96e2 9b3c 4502 a9bd
000000c0: 4a0c fbbd 9084 c23c 70f2 27be 7148 03be
000000d0: 4f08 30be cc78 dabd 13da 6b3e 2da9 d5bd
000000e0: 34d4 693e 0433 003e c624 05be 21c4 d9bd
000000f0: 66a5 80bd e2be 613e 5969 07bd 10f8 c8bd
00000100: 89d6 19be d907 ee3d 929a 0c3d df0e 0a3c
00000110: 6a3d b1bc 4d82 ebbd 6eb1 ed3d 7d62 dd3d
00000120: 6f73 0fbe ce59 c93c e99d acbd 18a5 663e
00000130: 7bef f2bd de78 8abd da84 0cbd ecab 153e
00000140: 2c7e c7bd 4051 87bd 0505 c2bd c04a ff3d
00000150: f55e cdbd 23b0 e5bc 146a d83d f79a aa3d
00000160: ffd2 3f3e 1ff5 bb3d e515 59bd 014a 8f3e
00000170: 0321 d93d 65e0 bcbd ab2b 183d aae3 843d
00000180: c408 47bd 9987 403c 0833 2d3d fc13 29be
00000190: 7568 fc3c 8bba 03be b53c 70bd e492 e43c
000001a0: 54bb 5cbd ae6a 88ba 2c68 6d3d 00d4 48bd
000001b0: 4be0 1ebe 28f4 02be 4cb9 8abb 60f5 533e
000001c0: 1323 0bbe 7b1e afbc bc22 b4bd 02b4 90bd
000001d0: 1f6f df3c 1934 e9bc 488e e0bd 0b1a e5bc
000001e0: fb3e 9bbc 8c60 1abe 94eb afbd ba9e b2bd
000001f0: 363f 2e3d 8d5b afbd 53ce 6c3d 0373 25be
00000200: 0189 7bbd 1533 643d 9fca 143e 4113 67bd
00000210: a79c bcbd 0275 20be 44bb e43d 63cf f7bc
00000220: 2118 13bd d5c4 92bd d911 9bbd 9a6c f73d
00000230: c8e2 c2bd e769 c9bd 9442 84bd 3b42 a83d
00000240: 6114 1dbe 806f 42bd dd05 b5bd 46a9 3abd
00000250: 7ed8 123e a4d5 773c 2f28 b83d a4d6 03bd
00000260: 4621 a13d 40bc 433e 0801 abbd fb63 17be
00000270: 29ed d23d ac83 d9bd 5bcd b2bd 1c8a b13d
00000280: bab5 66bc c938 7e3d c622 1abe 02c7 1fbd
00000290: df54 c8bd b9f6 18be b9d9 643c f72a 033e
000002a0: ec47 573e 43b8 95bc 1fd1 adbc 0969 96bd
000002b0: a877 f6bd 330c 493e 12fc 443e 08af 15be
000002c0: 25e5 003e a4b2 1cbb d191 af3d b056 1d3d
000002d0: 68f9 cb3d c5a8 49bd 71a5 8bbd 4d8e 2a3e
000002e0: 0999 00bc 364e c6bd 1b1b 5abc fd14 d9bd
000002f0: b86c ccbc f45e 063d 85c5 18be dff1 debd
00000300: b5f7 a4bd c355 05be e8b2 b1bc 6a0b 3f3c
00000310: 9428 36bd d723 fbbd ea79 a53d 8525 bebd
00000320: eda4 183e cbf1 9cbd 63a9 87bc 4471 58be
00000330: 9ef9 75bc 5085 ddbb 2973 77bc 6239 99bc
00000340: 3e59 ed3d 5087 e4bd 7bfa 613d e418 fc3d
00000350: a980 083e 79a2 b8bd ffe0 ba3d 74e5 afbb
00000360: 7153 70bc 758c 9e3d e0d5 ecbd a4d3 a9bd
00000370: ce78 283d be43 36be 8b8a e63b aa21 f5bd
00000380: ca71 94bb b69f eabc dd2f 21bd 1925 39be
00000390: 2800 f33c e11a 02be b4c8 ae3d 7b48 89bd
000003a0: fbe7 413e b1aa f4bd cd84 943d f017 dd3d
000003b0: a6ec f3bd 24c4 afbd 8702 34be 5591 9fbc
000003c0: 2c62 86bd d515 c83d a433 063d 3aff be3c
000003d0: 59fd 0abd 86b4 1bbd d5b2 07be e464 ed3c
000003e0: a953 933c f353 c03d db7e 823d 2158 8d3e
000003f0: e5e3 593e cedd 1fba 920c 04be 095b 3a3e

projection.3.weight f4 [512, 256]
0.026270794 0.04692755 0.07211272 0.041599654 -0.055454463 0.021615913 0.08949207 -0.12473719
-0.019211281 -0.060257018 0.11592794 0.007997479 -0.0020411587 0.008178615 0.049322475 -0.078109905
-0.015883652 0.11174657 0.014270618 0.0378536 -0.023503568 -0.046923626 -0.049969625 -0.010364592
0.022703901 0.109254435 -0.049627785 -0.07224516 0.026962401 -0.05236184 0.015421144 -0.0009452315
0.090027794 0.039200243 0.011140598 -0.003032407 0.041960187 -0.043554097 0.054288775 0.05743167
0.082461044 -0.019165639 0.052899413 0.05726965 0.05234527 0.06475459 0.024960078 -0.001616868
0.088663094 0.0079817325 0.015888171 0.023789125 0.071974136 0.015776193 0.02058046 0.07731635
-0.042318538 0.06493226 0.058522 0.0052063335 0.09511908 0.038215198 0.0047200993 -0.03061158
-0.11996804 0.031030737 -0.0016599387 0.02900574 0.06605968 0.05843048 0.01042623 -0.038301352
-0.07001524 -0.02892751 -0.008653118 0.051108826 0.08758881 -0.0111515485 -0.0867661 0.042794097
0.054683577 -0.0025422554 -0.07151477 0.0033963688 0.007189874 -0.024051784 -0.07466925 -0.019204926
-0.0014811269 0.07643453 -0.055770945 0.01595651 -0.044369537 -0.047547888 0.0156212505 -0.022141362
0.077280425 -0.012900057 -0.059730634 0.06226413 0.03054704 0.088798836 0.004835295 -0.08871212
-0.0124587845 0.040199824 -0.008321292 0.013507236 0.022144025 0.052866973 -0.049014743 0.025302678
0.014335563 0.014109697 0.046929583 0.003304213 -0.011275808 0.019341309 0.01942058 -0.0010053207
-0.006280053 0.029794207 0.002328661 -0.078572445 0.028008701 -0.09867732 -0.043637607 -0.02631718
0.023164276 -0.037160635 0.07160042 -0.031865545 0.012820152 -0.030534036 -0.012890568 0.0459721
-0.039249647 0.03682703 -0.06466694 0.010804068 -0.08263224 0.057627715 -0.030993903 0.07837637
-0.02470194 -0.014427471 -0.06517826 0.04823256 -0.042139057 -0.0130156875 -0.044521425 0.05685051
-0.01110674 0.038542964 0.107837394 -0.022038179 0.04643153 -0.011439991 -0.065981105 0.016472913
0.032811817 -0.027140325 -0.030771036 -0.05277664 -0.039133087 -0.02775638 0.015776156 -0.060491316
-0.0136843845 0.056913126 0.053460702 -0.007976377 -0.029632526 -0.020472225 0.0130363405 0.012954921
0.04541048 0.057572898 0.025095802 -0.041499086 0.03247095 -0.035785787 -0.013177585 0.050750695
0.04239085 0.049371473 -0.0050533204 0.06133627 -0.025912004 -0.041494705 0.015635181 -0.056868445
0.031820245 -0.016316863 0.05624443 -0.06407557 0.053310055 0.01049458 0.04209381 -0.0058653657
0.055851914 -0.04874616 0.08286808 -0.009491917 -0.028326137 0.028213277 0.017628394 -0.009486565
0.06755518 -0.059270673 0.071079254 -0.009593373 0.020799631 -0.0040180343 0.047432456 -0.019166663
0.017597394 0.07650204 0.037147764 -0.0016674519 -0.0009420583 0.0042797425 -0.052734017 0.016351843
0.038231976 0.04826332 -0.063542515 0.13586749 0.0459634 -0.0010423034 0.0010255422 0.07298293
-0.052535493 0.1316814 -0.051253088 0.0077111404 0.007542192 -0.030958405 0.010896172 0.063317016
-0.076050155 0.010135314 -0.02316076 0.0058163 0.029907212 0.034356177 0.053605072 -0.029104639
-0.05115006 -0.021288242 -0.0028541933 -0.013008118 0.055755824 0.101148814 -0.022928316 0.016658679
00000000: d935 d73c 1a37 403d d5af 933d 6664 2a3d
00000010: 3824 63bd db13 b13c 9e47 b73d 3676 ffbd
00000020: fa60 9dbc 10d0 76bd a16b ed3d dc07 033c
00000030: f6c4 05bb 99ff 053c 5d06 4a3d 16f8 9fbd
00000040: 6f1e 82bc 63db e43d 4fcf 693c 600c 1b3d
00000050: 8e8a c0bc fd32 40bd f3ac 4cbd 40d0 29bc
00000060: 88fd b93c cac0 df3d 8146 4bbd 45f5 93bd
00000070: 41e0 dc3c 5e79 56bd f7a8 7c3c 6ac9 77ba
00000080: 7e60 b83d 6f90 203d 0e87 363c 59bb 46bb
00000090: 72de 2b3d c865 32bd e85d 5e3d 793d 6b3d
000000a0: 56e1 a83d 4201 9dbc 0ead 583d 9593 6a3d
000000b0: fe67 563d 0e9e 843d 1479 cc3c 16ed d3ba
000000c0: ff94 b53d d0c5 023c e927 823c 69e1 c23c
000000d0: 2d67 933d 133d 813c 5a98 a83c 0958 9e3d
000000e0: 3456 2dbd 34fb 843d c4b4 6f3d e499 aa3b
000000f0: cbcd c23d 8a87 1c3d 10ab 9a3b 23c5 fabc
00000100: ceb1 f5bd 2c34 fe3c 4d92 d9ba 729d ed3c
00000110: 4c4a 873d cd54 6f3d c7d2 2a3c e1e1 1cbd
00000120: 2664 8fbd 63f9 ecbc cfc5 0dbc 7d57 513d
00000130: c361 b33d fcb4 36bc 6db2 b1bd dd48 2f3d
00000140: e3fb 5f3d f89b 26bb 5676 92bd 9d95 5e3b
00000150: 0999 eb3b 3f08 c5bc 31ec 98bd a653 9dbc
00000160: 5f22 c2ba b589 9c3d 1370 64bd 3ab7 823c
00000170: d5bc 35bd 93c1 42bd 46f0 7f3c cd61 b5bc
00000180: 3345 9e3d c35a 53bc 1ca8 74bd ac08 7f3d
00000190: c93d fa3c 2adc b53d 6571 9e3b b3ae b5bd
000001a0: ee1f 4cbc 92a8 243d 0756 08bc 744d 5d3c
000001b0: 6367 b53c 0a8b 583d afc3 48bd 9047 cf3c
000001c0: b6df 6a3c 5c2c 673c 3c39 403d 7f8b 583b
000001d0: 2bbe 38bc aa71 9e3c e817 9f3c f7c4 83ba
000001e0: e7c8 cdbb fb12 f43c 739c 183b 97ea a0bd
000001f0: 8172 e53c 5617 cabd 59bd 32bd 2097 d7bc
00000200: 02c3 bd3c c035 18bd 3ea3 923d 7285 02bd
00000210: 9d0b 523c 8422 fabc f632 53bc 3e4d 3c3d
00000220: 3dc4 20bd f1d7 163d 1a70 84bd 8c03 313c
00000230: 183b a9bd 0a0b 6c3d ede6 fdbc ca83 a03d
00000240: b95b cabc 3361 6cbc 2e7c 85bd 818f 453d
00000250: 019a 2cbd c03f 55bc 195c 36bd 15dc 683d
00000260: 0bf9 35bc 3adf 1d3d dad9 dc3d 6989 b4bc
00000270: fd2e 3e3d cd6e 3bbc 1a21 87bd 34f2 863c
00000280: af65 063d 6355 debc 8a13 fcbc 512c 58bd
00000290: 044a 20bd 5961 e3bc ff3c 813c bec5 77bd
000002a0: 7834 60bc bd1d 693d 9cf9 5a3d 5aaf 02bc
000002b0: e9bf f2bc 5eb5 a7bc 6096 553c e140 543c
000002c0: 5700 3a3d 8fd1 6b3d b695 cd3c f2fa 29bd
000002d0: 4200 053d 1e94 12bd cce6 57bc f6df 4f3d
000002e0: 07a2 2d3d be39 4a3d 5396 a5bb be3b 7b3d
000002f0: 6945 d4bc 5af6 29bd 5a15 803c e3ee 68bd
00000300: f255 023d f1aa 85bc 8f60 663d 0d3a 83bd
00000310: a55b 5a3d 75f1 2b3c 8f6a 2c3d 4132 c0bb
00000320: fac4 643d 0eaa 47bd bdb6 a93d fc83 1bbc
00000330: 370c e8bc 881f e73c 6c69 903c 8a6d 1bbc
00000340: 5f5a 8a3d cec5 72bd 0092 913d 862d 1dbc
00000350: fd63 aa3c b7a9 83bb 8948 423d 6803 9dbc
00000360: 6928 903c 1aad 9c3d 4128 183d 678e daba
00000370: 76f4 76ba 153d 8c3b a0ff 57bd 4df4 853c
00000380: 2299 1c3d c2af 453d 9422 82bd d920 0b3e
00000390: 1e44 3c3d e69d 88ba 7c6b 863a 1378 953d
000003a0: 752f 57bd 7dd7 063e c2ee 51bd bcad fc3b
000003b0: 7e24 f73b 7b9c fdbc dc85 323c 5aac 813d
000003c0: 2fc0 9bbd 970e 263c a2bb bdbc a996 be3b
000003d0: f8ff f43c 10b9 0c3d fe90 5b3d da6c eebc
000003e0: ba82 51bd ae64 aebc 6b0d 3bbb 0020 55bc
000003f0: 3860 643d 1c27 cf3d 2ad4 bbbc c877 883c

projection.3.bias f4 [512]
0.04722186 -0.054722257 -0.01685691 0.009891162 -0.0011633794 -0.047030516 0.017386325 -0.074859336
0.0057042115 -0.041970786 -0.0068253702 -0.016543131 0.021036562 0.013437325 0.004535889 0.048421133
-0.0056089135 0.0915388 -0.017547164 0.07023785 0.043238398 0.038059417 0.007680381 0.03944183
0.010377346 0.069756076 -0.01878821 0.033620793 0.0043819235 0.010356532 0.0597667 -0.0076962854
0.018714052 -0.03125871 -0.05962116 0.011157897 0.029619657 0.09141382 -0.008041391 0.061517086
-0.049067903 0.060581084 0.016247975 0.017987534 0.04300436 0.030066764 -0.030799571 -0.048029993
0.0008688944 -0.04117994 -0.005846178 -0.047248613 -0.020400831 0.047230482 0.0015548912 -0.04342193
0.02731089 0.023042811 -0.03481672 -0.060471978 0.013883296 -0.038495295 0.034720235 -0.08460888
0.021888284 0.021354184 0.018937847 0.08076284 -0.025962675 0.047331616 -0.06085593 -0.042159606
0.094465636 0.07158683 0.02858962 -0.05073965 -0.0012933371 -0.014672383 -0.086747475 0.024808537
0.010922498 -0.00804174 -0.019869834 0.02469572 0.025779394 -0.037549455 0.0021506143 0.04640786
0.022492025 -0.060142323 -0.035545055 0.05479257 -0.11907439 0.102484584 0.05698161 0.07005139
0.028270554 -0.001087239 3.876902e-05 -0.06646881 0.05565376 0.03350052 -0.031000465 -0.019081792
-0.008767191 0.050424136 -0.051115293 0.029134156 0.040288657 -0.09881127 -0.010299232 -0.015409565
0.009150996 0.01758491 -0.062298674 0.0257337 -0.055965014 -0.00789427 0.053710014 -0.009648276
0.056807958 -0.09946674 0.056678895 -0.069577105 -0.016785817 -0.007226718 -0.034132633 0.029176498
0.052568875 0.06491342 0.056557845 -0.049018323 -0.036560576 0.20822509 -0.06842158 -8.788911e-06
-0.07977088 -0.03286808 0.043197405 -0.066879764 0.012891818 0.007665734 -0.028117549 0.0879203
-0.063937485 -0.024933912 -0.016707886 -0.012180898 -0.007606363 0.07747458 -0.037565272 -0.0032040605
0.05810125 0.06411239 -0.08233768 -0.062477447 0.047008097 -0.012295102 0.021357823 0.07734733
0.050467823 -0.019388312 -0.027911691 -0.038847443 -0.035722267 -0.0024757097 0.016991252 -0.01215646
-0.025620265 0.05083443 0.0011903135 -0.07739466 0.03222867 0.04011507 0.025390623 0.07061981
0.03099483 0.02683806 -0.061658487 0.026322369 -0.040789515 -0.053097706 -0.06573683 0.017822621
-0.09560065 -0.043460414 0.032659583 0.023104174 -0.00386168 0.04793813 -0.06753095 -0.005436425
0.004669325 0.027713643 0.021336926 -0.0016420416 -0.032688774 0.06861824 -0.07816266 -0.09937733
0.03373163 0.025758596 0.009753461 0.061867446 0.044560593 -0.08148134 0.054121908 0.0027525874
-0.05419574 0.025882531 0.03658442 0.0659052 0.0055755135 0.008594448 0.009028439 -0.0048008445
0.058236767 -0.05116352 0.12152983 0.04099099 -0.039018393 -0.027358448 -0.024081782 -0.049574066
-0.09682405 -0.019532425 0.0021899862 -0.071125686 0.008602322 0.009103228 -0.045380443 0.06775942
0.09359747 -0.012128511 0.014292792 0.07354298 -0.01701547 0.03117124 -0.09510796 -0.039631438
-0.017538827 0.014154769 0.009849069 -0.05229537 -0.089777134 -0.120742634 -0.029268114 0.036006235
0.085091144 0.0030980308 -0.108698264 0.04362494 -0.0025873973 -0.009349684 -0.088394426 0.047550574
00000000: b66b 413d 7224 60bd 8117 8abc 8a0e 223c
00000010: 897c 98ba 12a3 40bd c46d 8e3c da4f 99bd
00000020: 65ea ba3b 8fe9 2bbd 5ba7 dfbb 7685 87bc
00000030: de54 ac3c 3a28 5c3c cba1 943b 3d55 463d
00000040: faca b7bb b278 bb3d 12bf 8fbc ddd8 8f3d
00000050: bf1a 313d 31e4 1b3d b5ab fb3b c28d 213d
00000060: be05 2a3c 46dc 8e3d bbe9 99bc f5b5 093d
00000070: 3d96 8f3b 72ae 293c edcd 743d 1f31 fcbb
00000080: 364e 993c 2209 00bd 5135 74bd 9dcf 363c
00000090: eca4 f23c 2b37 bb3d 0ac0 03bc 57f9 7b3d
000000a0: 6dfb 48bd df23 783d 791a 853c 985a 933c
000000b0: 5725 303d 934e f63c 624f fcbc 19bb 44bd
000000c0: 84c6 633a 4cac 28bd 4c91 bfbb c387 41bd
000000d0: a51f a7bc c074 413d 7ecd cb3a 32db 31bd
000000e0: 16bb df3c 47c4 bc3c fa9b 0ebd 77b1 77bd
000000f0: c476 633c 3ead 1dbd ce36 0e3d 6c47 adbd
00000100: 0f4f b33c f8ee ae3c 8b23 9b3c fd66 a53d
00000110: adaf d4bc ccde 413d 1144 79bd 8daf 2cbd
00000120: 3377 c13d 1e9c 923d c734 ea3c 61d4 4fbd
00000130: 3185 a9ba 6f64 70bc a9a8 b1bd 463b cb3c
00000140: 47f4 323c 81c1 03bc 10c6 a2bc ae4e ca3c
00000150: 4f2f d33c 75cd 19bd 52f1 0c3b 2b16 3e3d
00000160: 3241 b83c cc57 76bd b197 11bd 2d6e 603d
00000170: 46dd f3bd 70e3 d13d 8c65 693d 1a77 8f3d
00000180: a697 e73c b081 8eba eb9b 2238 cd20 88bd
00000190: 32f5 633d d737 093d b0f4 fdbc 6b51 9cbc
000001a0: 44a4 0fbc 8a89 4e3d 455e 51bd c1aa ee3c
000001b0: b805 253d 905d cabd 1cbe 28bc 6678 7cbc
000001c0: 0fee 153c 3b0e 903c e52c 7fbd 7bcf d23c
000001d0: 923b 65bd f856 01bc 08ff 5b3d cd13 1ebc
000001e0: 76af 683d 38b5 cbbd 2128 683d 717e 8ebd
000001f0: 6982 89bc 1bce ecbb a9ce 0bbd 8d03 ef3c
00000200: 7652 573d 54f1 843d 33a9 673d 70c7 48bd
00000210: 8bc0 15bd f538 553e 9d20 8cbd 1674 13b7
00000220: ea5e a3bd aea0 06bd c3ef 303d 42f8 88bd
00000230: 3438 533c d630 fb3b c656 e6bc 8f0f b43d
00000240: a8f1 82bd 3442 ccbc fade 88bc 6492 47bc
00000250: cc3e f9bb feaa 9e3d 0bde 19bd 37fb 51bb
00000260: 94fb 6d3d 5b4d 833d a8a0 a8bd 5ae8 7fbd
00000270: 908b 403d 6571 49bc 9af6 ae3c 4768 9e3d
00000280: 59b7 4e3d 3dd4 9ebc 0fa7 e4bc 7f1e 1fbd
00000290: 8351 12bd 843f 22bb 3d31 8b3c e42b 47bc
000002a0: 97e1 d1bc c337 503d 4b04 9c3a 1781 9ebd
000002b0: 3602 043d b34f 243d ffff cf3c 1ea1 903d
000002c0: dfe8 fd3c 7edb db3c 9c8d 7cbd 02a2 d73c
000002d0: e812 27bd fb7c 59bd 08a1 86bd bf00 923c
000002e0: 46ca c3bd 8c03 32bd 0ec6 053d f744 bd3c
000002f0: 3d14 7dbb c65a 443d ab4d 8abd 0a24 b2bb
00000300: 2301 993b b907 e33c c7ca ae3c c639 d7ba
00000310: aae4 05bd b887 8c3d bf13 a0bd 5786 cbbd
00000320: 2d2a 0a3d b103 d33c fbcc 1f3c b868 7d3d
00000330: 2b85 363d b0df a6bd efae 5d3d c164 343b
00000340: 5afc 5dbd 9a07 d43c 8bd9 153d 4ef9 863d
00000350: ccb2 b63b bacf 0c3c 05ec 133c 6750 9dbb
00000360: ad89 6e3d d790 51bd a2e4 f83d 2be6 273d
00000370: c0d1 1fbd d31e e0bc 2847 c5bc 2d0e 4bbd
00000380: b04b c6bd 7702 a0bc df85 0f3b 58aa 91bd
00000390: c1f0 0c3c b525 153c d8e0 39bd 73c5 8a3d
000003a0: 08b0 bf3d aab6 46bc 512c 6a3c b49d 963d
000003b0: 0764 8bbc d45a ff3c f6c7 c2bd 9354 22bd
000003c0: 96ad 8fbc 67e9 673c fd5d 213c ab33 56bd
000003d0: 13dd b7bd ea47 f7bd afc3 efbc 467b 133d
000003e0: 4444 ae3d 5508 4b3b 329d debd 11b0 323d
000003f0: 5391 29bb 6b2f 19bc 2308 b5bd 64c4 423d
