task2b_best_partial_unfreeze.pth (torch, 661551 bytes, 4 tensors)

projection.0.weight f4 [256, 128]
000000 0c a4 e7 3d 42 4a b6 3d 9a e5 f0 bd 3a b8 f4 bb
       0.11310586 0.08900882 -0.11762543 -0.0074682506
000010 77 7c 0e 3d 45 d3 b2 bd 05 02 9f 3d b4 6e b6 3d
       0.034786668 -0.08731703 0.07764057 0.08907834
000020 c0 a5 0d bb 1d 7a a7 3d cb 40 44 3d 21 9a 15 ba
       -0.0021613687 0.08177588 0.047913354 -0.0005706866
000030 47 0c af bd 8d b7 d5 bd d0 88 29 3d 48 1e b6 bd
       -0.085472636 -0.104354 0.04139024 -0.088924944
000040 14 f4 3c 3d ad 9e 6b 3d 56 26 be bd ed 53 8b 3d
       0.04613121 0.057524372 -0.09284656 0.06803117
000050 77 ab e2 bd ee ac 9d bc 0d 6e 0d 3c cb 6f a8 bd
       -0.110678606 -0.019247498 0.008632195 -0.08224448
000060 fb 17 ce bb 9d 9e 1c 3c 24 11 84 bc 2b a6 28 bd
       -0.00628948 0.009559301 -0.016121455 -0.041174095
000070 f4 fc 90 3a 6d bb f3 3d 9e 87 52 3b 54 1f 08 3d
       0.0011061714 0.11900983 0.0032124291 0.033233
000080 db 62 b8 3d 56 7f cd bd 8a a4 a4 3d ce e6 8a 3d
       0.0900323 -0.10034053 0.08039196 0.06782304
000090 13 80 9a bd e0 81 00 bd 71 d7 b7 bc 65 11 92 bb
       -0.075439595 -0.03137386 -0.022441598 -0.00445764
0000a0 01 f5 38 3c 99 f5 07 be 2a e8 93 3d 7c b8 07 3d
       0.011288882 -0.13277282 0.07222016 0.033134922
0000b0 61 89 f1 bc 63 24 99 3c 3c d7 f5 3c 70 41 f4 3c
       -0.029484453 0.018694108 0.030009858 0.02981636
0000c0 aa bd 68 bb 67 94 aa bd f9 cd 6f 3c 27 43 5c 3c
       -0.003551344 -0.08329087 0.01463651 0.013443745
0000d0 cc 22 72 bd b3 56 30 bd 8e 3d 09 bd 55 08 b2 3d
       -0.059115216 -0.043051433 -0.03350597 0.086929955
0000e0 98 d9 be bd bf be 90 3b 12 19 99 bb c0 4d 1f 3d
       -0.093188465 0.00441727 -0.004672178 0.038892508
0000f0 31 dc 0c be c4 12 ce 3d e4 7c 75 bd 61 c4 b1 bd
       -0.13755871 0.10062173 -0.059933558 -0.086800344
000100 e9 19 00 3e c0 77 08 3d a4 3a ff 3c 60 4c aa 3d
       0.12509884 0.033317327 0.031155892 0.083153486
000110 2e 27 85 3c 49 70 04 3e 06 91 49 3b ca ff b5 bd
       0.016254034 0.12933458 0.0030756607 -0.088866785
000120 60 5e 8d bd da 08 23 bd ff 82 34 3c 09 f1 7d 3a
       -0.06902766 -0.039803363 0.01101756 0.0009687101
000130 2d cd 1d bd ae 19 ad bd 0c 8b 11 3e 00 10 10 bd
       -0.03852575 -0.08452164 0.14213198 -0.03517151
000140 c7 20 c9 bc a3 15 10 3c 1e cf 39 3b 7e 5b 2f bd
       -0.024551762 0.008794221 0.0028352211 -0.042811863
000150 3a 21 cf bd 98 3b 78 bd 52 40 2e 3d a4 f3 2f bd
       -0.10113759 -0.060603708 0.04254181 -0.042956963
000160 dd 2b 89 3c 0c b9 03 3e b4 35 b6 3c 91 c4 08 bc
       0.016744548 0.12863559 0.022242405 -0.008347646
000170 8c 9d 96 3c e9 1c 0a 3e 3f e8 d6 bd e2 67 ff 3d
       0.018385671 0.13487591 -0.10493516 0.12470986
000180 7e b1 2c be 6c c4 cd 3c 7c 62 8c 3b fe 9b cf bd
       -0.16864583 0.025118075 0.004284201 -0.10137175
000190 40 19 b5 3d 91 36 18 bd cb 19 bc bc 0c 84 61 3c
       0.08842707 -0.037161414 -0.022961518 0.013764393
0001a0 c5 a4 b0 bd 9d 80 bf 3d 78 82 1e bd 96 7b 11 bc
       -0.08625177 0.09350703 -0.038698643 -0.008879563
0001b0 25 f7 f5 bd 21 96 bb 3c 47 1a cf 3c 61 d0 b0 3d
       -0.1201003 0.022898735 0.025281085 0.08633495
0001c0 bd 91 59 3d b7 4c bc bd dc e3 1b bd ed 7b 12 3c
       0.053117502 -0.0919432 -0.0380591 0.008940679
0001d0 69 b6 12 be f9 6b 8d 3c 29 c7 10 be 8c 19 b0 3c
       -0.14327396 0.0172634 -0.14138474 0.021496557
0001e0 6f 39 c5 bd cd cc c9 bd 33 e9 ea bc d2 73 9f 3c
       -0.09630095 -0.09853516 -0.028675651 0.019464407
0001f0 dd ad 24 3e 41 f2 5c bd 18 80 1e bc 82 1e 47 bd
       0.16081949 -0.05394197 -0.009674095 -0.04861308
000200 07 0a 72 3d 87 ac e1 bd a0 ca 30 3d 23 e3 7a 3e
       0.059091594 -0.11019235 0.04316199 0.24500708
000210 61 a6 88 3d e2 d4 41 bc 35 51 ba bc 0d dd 5d 3c
       0.06672359 -0.01183054 -0.0227438 0.013541472
000220 ba a8 e6 3c 39 4c ee bd 2e 8b bf ba 72 dc 7e 3d
       0.028156627 -0.11635632 -0.0014613622 0.06222195
000230 99 3b 5a 3d 3b 42 9a be d6 15 76 3d 86 f7 0f bc
       0.053279493 -0.30128655 0.060079418 -0.0087870415
000240 e5 b3 0a be 58 59 c9 bd 21 a6 15 bc cc 65 a5 bd
       -0.13545187 -0.09831494 -0.0091338465 -0.08076057
000250 81 fc af bd f1 a7 95 3d 28 0c f9 bc a0 33 cc 3c
       -0.08593083 0.07307423 -0.030401304 0.02492696
000260 40 c1 8e 3d 66 e6 36 bd 06 4a 93 bc 4b dd 22 3d
       0.06970453 -0.04465332 -0.017979633 0.039761823
000270 45 10 be 3d cd e6 09 3e 9e 47 1c be 33 63 90 bd
       0.09280447 0.1346695 -0.15261695 -0.07050171
000280 9f 73 83 bb 0f 15 8f 3b d0 95 26 be bc 67 f6 bc
       -0.004011586 0.004366524 -0.16268086 -0.030078761
000290 2b 1d 4f 3d 64 cc 6c bd ee a6 76 3e 9c c1 f7 bd
       0.050564926 -0.05781211 0.24087116 -0.12097475
0002a0 7a 55 7d be a9 93 b3 bd ef eb e2 bd 37 3b e8 bd
       -0.24739638 -0.08768398 -0.11080157 -0.11339419
0002b0 7b 61 37 bc b2 b8 4c bd 5b 4a f2 3d 62 a2 28 be
       -0.011192675 -0.049980827 0.118305884 -0.16468194
0002c0 65 83 08 be 4f 63 14 3e 36 9c 58 3d ab 1a 80 bc
       -0.13331373 0.14491008 0.05288335 -0.015637716
0002d0 47 57 a2 bd b6 d5 c9 bd 8d 03 ab bb 4d 3d a9 bd
       -0.07926803 -0.09855215 -0.005218929 -0.08263645
0002e0 ab 48 49 3e 67 14 10 3d e1 51 37 be ad 69 f9 3d
       0.19656627 0.035175707 -0.17902328 0.12178359
0002f0 b3 8b fd 3d ca 2f e1 bd 2f 11 2a bc c4 cd 03 3d
       0.12380161 -0.10995443 -0.010380073 0.032178655
000300 6f 70 e1 3b 60 94 d3 3d b4 90 a0 3d d4 79 17 3e
       0.006879858 0.10331035 0.078401 0.14792567
000310 7a 2f 7e 3d b8 13 0c 3e ed f6 94 bd 37 e8 d3 3c
       0.062056996 0.13679397 -0.0727366 0.025867565
000320 74 81 ae bd 04 7f 41 3d 8b 40 03 3d 2c 98 b7 bb
       -0.08520785 0.047240272 0.032043975 -0.005602857
000330 d5 c4 db 3c 4b b9 e5 bd ac 12 03 3c db ff 16 3e
       0.026827255 -0.112169825 0.008000057 0.14746039
000340 93 f1 fc bd 92 18 0e bc c1 5e 68 bd 43 11 a7 3e
       -0.12350764 -0.00867285 -0.05673099 0.32630357
000350 0a 82 5f 3d 1c 5d e5 bd 60 c6 df bd d9 ec cd 3b
       0.054567374 -0.111994 -0.10926509 0.006284338
000360 b7 cb 88 3d 21 44 85 3d 52 b9 97 3c 8e 5f 85 bc
       0.066794805 0.06507135 0.018520985 -0.016280916
000370 ee aa 03 be b0 19 d7 3d 1c e2 88 3b e0 15 13 bd
       -0.12858173 0.105029464 0.004177345 -0.035909534
000380 4b 60 07 be 16 81 6b bd 62 fb 26 bd d1 e3 33 3e
       -0.13220327 -0.057496153 -0.04076708 0.17567374
000390 15 50 c3 bd 71 3a e1 3d fa 9a 56 3e 30 ca e5 bd
       -0.09536759 0.10997475 0.20957556 -0.11220205
0003a0 1c 14 05 be 96 73 28 3d 45 d0 c3 3c c1 9c 9c 3c
       -0.12995952 0.041125856 0.023903022 0.019117715
0003b0 78 dd 2d be 2d a1 d8 bd 1b 29 12 be 0d b7 65 bd
       -0.16979015 -0.10577617 -0.14273493 -0.056082774
0003c0 bf da e2 bd 76 79 b6 bc 9b 9b 99 bd d7 22 03 bd
       -0.11076879 -0.022274714 -0.075003825 -0.032015648
0003d0 c6 5a 6a 3d 53 ce a6 bd aa b1 11 be a0 62 ab bc
       0.057215475 -0.08144822 -0.1422793 -0.020921052
0003e0 29 b6 b8 bd 9c 24 58 3e e7 bc e7 bd c7 fd 50 3c
       -0.09019119 0.21107715 -0.11315327 0.012755818
0003f0 15 9c ed bd 27 89 ff bc 5b 0c 33 3e b0 62 a1 3d
       -0.11602036 -0.031193329 0.17485182 0.07880151

projection.0.bias f4 [256]
000000 3e ba c7 3d bc 3b e2 bc cd 19 80 be ff 15 e1 be
       0.0975232 -0.027616374 -0.25019684 -0.43962094
000010 14 dd c8 bd 19 8b 97 bd b8 30 b1 3d 42 70 1b 3e
       -0.09807792 -0.07399578 0.086518705 0.15179542
000020 c2 2d c7 3c 20 86 cc 3d 1e 58 92 be 6a c8 10 be
       0.024313811 0.0998652 -0.28582853 -0.14138952
000030 bd 6b a4 3e 04 7e bb 3e 59 f2 cc be 4a f3 bf bd
       0.32113448 0.3661958 -0.40028647 -0.093725756
000040 57 43 a3 3d fb ff 18 3e 45 2b 3a be 90 cc fd bd
       0.079718284 0.14941399 -0.18180569 -0.12392533
000050 fc f3 23 3e 13 a8 d8 3c 3e 86 01 3e 90 09 e7 3d
       0.16011041 0.026447332 0.12648866 0.11281121
000060 b1 3f 3e 3d 41 50 8b be 60 06 75 bd e3 b3 b2 3e
       0.04644746 -0.27209666 -0.059820533 0.34902868
000070 ab a3 b8 3d 74 ed 19 3e df b4 80 bd db 35 93 be
       0.09015592 0.15031987 -0.062844984 -0.28752026
000080 eb 2f 3d bd 7a c5 33 bd 95 6e 63 bc c6 e5 92 be
       -0.046188276 -0.0438895 -0.013881345 -0.28690928
000090 81 25 cb bd c4 78 cc 3d c1 32 ee bd 3c 9f a7 bc
       -0.09919263 0.09983972 -0.11630774 -0.020461671
0000a0 8b a5 dc bc dd a0 7f 3c 67 52 a0 be 90 32 94 3e
       -0.026934406 0.015602318 -0.31312868 0.28944826
0000b0 cd 93 a6 bd 73 39 a9 be b5 dd 1e 3e 93 6e a9 bd
       -0.081336595 -0.33051643 0.15514262 -0.082730435
0000c0 36 6e a3 be 5f 1b 63 3e 5f 8b cf bd 91 2f e5 bd
       -0.31920022 0.2217841 -0.10134005 -0.11190713
0000d0 0f 84 73 3e 53 85 79 be 93 03 15 3e a5 4c 83 3e
       0.23780845 -0.24367265 0.14552145 0.25644413
0000e0 b8 c2 1e 3d 7b 75 ee bd b7 59 83 be 31 27 a7 be
       0.038759917 -0.11643501 -0.25654384 -0.32647088
0000f0 3b c1 6b be 15 21 14 bd f5 95 10 be 25 53 36 3e
       -0.2302293 -0.036164362 -0.14119704 0.17805155
000100 f8 a5 b4 be 58 45 ad bd b4 7c 33 3d 0c b3 36 be
       -0.35282874 -0.08460492 0.043820098 -0.17841738
000110 6b a9 0c be 84 d2 58 be 78 f7 99 3e 9f 6d 4c 3d
       -0.13736503 -0.21174055 0.30071616 0.04990923
000120 2b b4 2a bc 17 22 ad bd c3 33 3e be 57 96 24 be
       -0.010418932 -0.08453768 -0.18574433 -0.16072975
000130 64 e9 37 be 04 33 b2 be 04 44 0b bd 83 e2 85 be
       -0.17960125 -0.34804547 -0.03400041 -0.26149377
000140 43 d7 59 be 14 29 8c be d2 52 5d be ce 3a 39 3d
       -0.21273522 -0.2737509 -0.21613625 0.045222096
000150 92 89 bf be 55 cf 88 be 2e ed 0a be ae 6b 77 be
       -0.37409645 -0.26720682 -0.1356704 -0.2416217
000160 75 02 40 bd 62 08 42 bc 4e 1a 9d 3d 65 64 0b 3e
       -0.046877343 -0.011842819 0.07671033 0.13612516
000170 dc d3 30 bc 81 57 6f 3d 89 40 8b 3e 55 fd 91 bd
       -0.010792699 0.05843306 0.27197674 -0.071283974
000180 31 b9 45 3e 2d cc 83 3e fa e5 54 3e cf 6a 75 3e
       0.19308926 0.2574171 0.20790854 0.23966525
000190 f6 c0 86 bd 1f 61 68 3e db e7 79 be 85 11 98 be
       -0.06579773 0.22693299 -0.24404852 -0.29700866
0001a0 26 9e b4 3d 00 98 7b 3e c1 88 8d 3d 64 84 68 3d
       0.08819227 0.24569702 0.06910849 0.056766883
0001b0 ee 6f ac 3e b1 0e 22 3d 6e 67 88 bd da ae 7e be
       0.33679146 0.039564792 -0.06660353 -0.24871388
0001c0 e2 41 c9 bb 4f ea b6 be 89 de a7 3d 9f 3c e6 3a
       -0.006141887 -0.35725638 0.08196742 0.0017565674
0001d0 b8 52 62 be 1c c2 61 bd 7a ad 5a be 0a 86 8c 3e
       -0.22101867 -0.055116758 -0.21355239 0.27446014
0001e0 8d 52 58 3e 09 5a b4 bc 36 13 34 be 14 ff bc bd
       0.2112524 -0.022015588 -0.17585453 -0.0922834
0001f0 af 26 b0 bd 96 28 f7 3c d3 19 d8 3c da 3e 55 be
       -0.08601128 0.03017072 0.026379501 -0.20824757
000200 12 8e e1 bd 99 72 64 bc 57 f4 4c be 53 7e 90 3e
       -0.11013426 -0.013943338 -0.20015083 0.28221378
000210 8d a7 a4 3d 6a eb b3 3d e2 75 30 be f0 21 25 bd
       0.0803977 0.08785136 -0.17232469 -0.04031557
000220 6f e3 e3 bd 74 bc ef 3d 96 98 8f be 09 a1 2d be
       -0.11127364 0.117058665 -0.280461 -0.16955961
000230 c8 b1 a2 3e 80 d1 7b be 55 9a 3c 3d af 69 8a 3e
       0.3177626 -0.24591637 0.04604562 0.27033755
000240 89 0d 75 bd 7e e7 2d be 4a d6 a8 bd a4 38 9e be
       -0.05982736 -0.16982839 -0.082439974 -0.30902588
000250 24 79 98 3e bd a2 8a be 7d 34 04 be 4f b8 33 be
       0.29779923 -0.27077284 -0.12910648 -0.17550777
000260 b9 37 c5 bd 73 92 5a 3e a6 16 8b bd 44 d3 cf 3e
       -0.09629769 0.21344928 -0.06791429 0.4059087
000270 63 c8 02 bd a5 37 57 be d7 ca d8 3d 56 7e 07 3e
       -0.031929385 -0.2101732 0.10585564 0.13231787
000280 2a b6 16 3e c6 cf 63 be 80 36 27 be 4b 57 92 be
       0.14717928 -0.22247228 -0.16329384 -0.28582224
000290 d6 1d ad bd 65 77 3e 3e 1c cc 3d 3e 37 58 1a be
       -0.084529564 0.18600233 0.18534893 -0.15072714
0002a0 df a9 8c be e1 0b 9a be fd f1 c2 be 2d 26 02 be
       -0.2747335 -0.30087188 -0.38075247 -0.12709875
0002b0 7e 8f 8f be 29 ea 48 3e cd e6 82 bd 1c d5 e3 3d
       -0.28039163 0.19620575 -0.06391678 0.11124632
0002c0 33 c4 2a 3e e3 ca 82 3d ea bb 68 3e ec a3 33 be
       0.16676407 0.06386354 0.22727934 -0.17543
0002d0 e4 a0 88 bd 98 89 a8 bc db c4 0f be 2b fa bd bd
       -0.066713125 -0.020573422 -0.14039938 -0.092762314
0002e0 a9 30 80 be c8 b8 1f 3e 70 f5 30 be d9 93 a1 be
       -0.25037125 0.15597832 -0.17281127 -0.3155811
0002f0 45 5d 0e be 8a 73 63 3e 89 47 c6 3e e7 b7 c4 3d
       -0.13902767 0.22212043 0.38726452 0.09605389
000300 7b e1 4c be e0 8c 31 3b 93 fe a0 3b ad cc 04 be
       -0.20007889 0.0027092025 0.00491316 -0.12968703
000310 75 10 9e 3e b8 c6 32 be 12 52 00 3e a4 19 0e bc
       0.3087193 -0.17458618 0.12531307 -0.008673105
000320 28 75 17 be 5e 14 03 3e b2 7e 2f 3d e0 7e 6f be
       -0.14790785 0.12800738 0.042845435 -0.23388243
000330 79 be a3 be 5b b2 b6 bd 0a 8a 1a 3c 9f b8 56 3e
       -0.31981257 -0.08920737 0.009432325 0.20968865
000340 e9 1d 65 bd f2 8b 93 be 8f e2 41 be 67 31 6b be
       -0.055936728 -0.28817707 -0.18934081 -0.22968064
000350 21 2b 8f be 3f db 82 be c8 0b 64 be a3 24 90 be
       -0.27962592 -0.25557896 -0.22270119 -0.28152952
000360 da 59 32 3c b4 2d 33 be 76 64 a4 3e 65 a0 64 3e
       0.01088568 -0.17497903 0.32107896 0.2232681
000370 00 5b 3f 3e 4e 72 63 3e 35 be fc bd 37 9f 47 bd
       0.18687057 0.22211573 -0.123409666 -0.048735823
000380 be 1f 85 3e 18 a2 1f 3d 02 cc dc bd c8 9f c3 bd
       0.2600078 0.038972944 -0.10781099 -0.0955196
000390 89 ee f2 3c ce ae 9e bb 60 28 98 bd 3f 0b d2 bd
       0.029654758 -0.0048426157 -0.07429576 -0.10256051
0003a0 24 e1 55 be 7a 58 f3 3c 1c 1d 1e be 7d 06 5e 3e
       -0.20886666 0.029705275 -0.15440792 0.21682163
0003b0 e7 41 48 3e d1 39 c6 bd bd 12 0e 3e a1 4d 3c bc
       0.1955639 -0.09678996 0.13874336 -0.011493118
0003c0 1f ea 3f be 4b ac 8a be 36 a0 0a bc db 91 e5 3c
       -0.18741654 -0.27084574 -0.008461049 0.02802365
0003d0 07 78 70 be 30 66 b0 3e 96 36 1a be 9c 44 88 bd
       -0.23483287 0.34452963 -0.15059885 -0.06653711
0003e0 9a 39 10 bd 45 73 9e 3e 3b 6f 49 bd aa d2 e7 bd
       -0.035211183 0.3094732 -0.049178343 -0.11319478
0003f0 ab 8a 11 bd 11 03 55 3e c6 f3 82 be e9 c7 44 bd
       -0.035532635 0.20801951 -0.2557661 -0.04804221

projection.3.weight f4 [512, 256]
000000 40 29 91 bd c8 f8 a6 bd 42 b3 8d 3b 94 f1 7b 3d
       -0.07087946 -0.0815292 0.0043243477 0.061509684
000010 1b 98 0a be d4 92 a5 bd a9 4c e8 bd ef f7 be bd
       -0.13534586 -0.08084646 -0.11342747 -0.09324633
000020 62 fd cb bd 81 60 39 be a2 6f a8 3d ac 2a 05 be
       -0.09960438 -0.1810322 0.08224417 -0.1300456
000030 f4 88 94 bd 2a 48 bf bd 38 f8 32 3e 61 c5 53 be
       -0.07252684 -0.09339936 0.174775 -0.20680763
000040 d5 13 b4 bd 97 5f c4 bd be 5e e9 bc 87 19 02 be
       -0.08792845 -0.09588545 -0.02848756 -0.1270505
000050 b1 eb 0b be 8d b6 b6 bd e0 50 d9 bd a6 7f 2f be
       -0.13664128 -0.089215375 -0.10611129 -0.17138538
000060 9a 54 a4 bd e9 47 91 bd 20 11 06 be 65 fc 23 be
       -0.08023949 -0.07093794 -0.1309247 -0.1601425
000070 b1 01 21 be 52 ac 14 be 3b 76 39 3b 15 03 36 be
       -0.15723301 -0.1451886 0.002829923 -0.17774613
000080 06 71 bf bd 77 80 ea bd 5f 82 07 be c4 8d 14 3c
       -0.093477294 -0.11450284 -0.13233326 0.009067003
000090 68 33 9c bd 99 8f 5f be f2 79 01 bd da c2 d9 bd
       -0.076269925 -0.21832122 -0.031610437 -0.10632868
0000a0 ac bb ba bd fa fe 9d bd 91 34 5a bd 54 81 e5 bd
       -0.09117827 -0.077146485 -0.053272787 -0.11206308
0000b0 3e 5f 48 bd 43 89 a8 bb 81 ff 18 be dc 6b a1 bd
       -0.048918955 -0.005143316 -0.14941217 -0.07881901
0000c0 7f 5e ca 3c 6c e9 ed bd b5 c2 a5 bd 66 5e 85 bd
       0.024703262 -0.11616787 -0.08093778 -0.06512146
0000d0 2d 33 01 be 86 d0 bd bd 2f 26 0c be 46 5d 2b be
       -0.12617178 -0.09268288 -0.13686441 -0.167348
0000e0 76 f7 24 be a5 76 d7 bd 5c 8e 1a be f9 7b 24 bb
       -0.16110024 -0.105206765 -0.15093368 -0.0025098308
0000f0 67 aa 65 bd 58 c0 2e be b1 de 45 bd ef 3a 91 bd
       -0.05607071 -0.17065561 -0.04830808 -0.07091319
000100 2e e1 c8 3d b1 ed bc bd 01 fd 37 be f3 00 ae bd
       0.098085746 -0.092250235 -0.17967607 -0.08496275
000110 07 d9 27 be 5c af 06 be 55 1d f5 bd 5d 2c 07 be
       -0.16391383 -0.13152832 -0.11968485 -0.13200517
000120 30 16 44 be df 9e 8b bd f6 6a 80 3d d1 91 1d bd
       -0.19149089 -0.06817412 0.06270401 -0.03846914
000130 c0 d3 3d 3d 04 e9 f9 3c c8 7c 8e bd 97 66 c9 3c
       0.04634452 0.030506618 -0.06957394 0.024585051
000140 75 5e 1a bd 35 69 3d 3d 9d 0b 06 3d 16 e6 de bd
       -0.037687737 0.04624291 0.03272592 -0.10883729
000150 9e 9c e0 3d d0 bd 31 bd f5 00 b2 bd 5b c8 52 bd
       0.10967372 -0.04339391 -0.08691589 -0.051460605
000160 41 95 63 bd 52 66 33 be 28 90 e3 bd 22 98 11 be
       -0.05556226 -0.17519501 -0.1111148 -0.1421819
000170 c0 ba ea bd 24 1d 16 be 05 a0 98 bd 20 c0 1e be
       -0.11461401 -0.14659554 -0.07452396 -0.15502977
000180 9d 6f ac bd b7 05 f0 bd 70 ca 2d be 69 b0 54 be
       -0.08419726 -0.1171984 -0.16971755 -0.2077042
000190 cd 22 4f be b1 5a 6f bd 8c 44 ae bd c2 e9 cb bc
       -0.20228119 -0.0584361 -0.08509168 -0.024891738
0001a0 16 58 07 be 8a 5c 8c bd 41 77 66 be 55 6d 58 bd
       -0.13217196 -0.06853588 -0.2250643 -0.052838642
0001b0 59 5d e3 bd 5f 41 d2 bc 15 cc 9a bc d7 87 ee 3b
       -0.11101789 -0.025665937 -0.018896142 0.007279377
0001c0 03 a0 0b be cc 13 e8 3b 27 b2 0f be ad bb 3e be
       -0.13635258 0.007082438 -0.14032803 -0.1862628
0001d0 aa 7e 9b 3c d4 2c 08 be 57 b9 a0 be 91 08 d9 bd
       0.018981297 -0.1329835 -0.31391403 -0.10597337
0001e0 c9 3c f2 bd a8 0d 91 bd 44 95 ab 3c 73 c9 9b bd
       -0.11828 -0.07082683 0.020945199 -0.07606783
0001f0 48 3e 81 bd b5 f4 0a be 12 27 b7 bd 50 3c 4a be
       -0.06310707 -0.13569911 -0.08942999 -0.1974957
000200 3d 8d 70 bd fa 79 c3 bd c9 4c b5 be 17 7c 03 be
       -0.058728445 -0.095447496 -0.35410145 -0.12840305
000210 5e 49 c4 bd 58 ae c9 bd 23 92 07 be 94 5b 3c be
       -0.09584306 -0.098477066 -0.1323934 -0.1839431
000220 80 ed d7 bd 5b 1a 1b be 8f ae 52 bd e8 60 de ba
       -0.105433464 -0.15146773 -0.051436003 -0.0016966136
000230 59 03 d0 bd c8 32 21 3c 52 87 d2 bd 1d 10 9d bd
       -0.101568885 0.009838767 -0.102797166 -0.07669089
000240 48 ee 01 be bb 0f 03 be a3 19 17 bd 2e 5a 7b ba
       -0.12688553 -0.1279897 -0.036889683 -0.0009588328
000250 1c fe 69 be 66 ff db bd 46 19 e8 bd a3 e2 d0 bd
       -0.22850841 -0.10742073 -0.113329455 -0.101994775
000260 3c 24 5d bb b2 20 26 be 6e 9a 66 be 91 e1 01 be
       -0.0033743521 -0.1622341 -0.22519848 -0.12683703
000270 5a 1d 1f be 0b b1 69 bd d2 c1 f9 bd 1e 9a fd bd
       -0.1553854 -0.057053607 -0.121951714 -0.12382911
000280 88 e6 ea bd ba 51 0f be b4 5c 20 3d 5d 22 ad bd
       -0.114697516 -0.1399602 0.03915091 -0.0845382
000290 4c 09 7d bd 1b 02 1f be 08 ba 3c be 2f be cf bd
       -0.061776444 -0.15528147 -0.1843034 -0.101436965
0002a0 9f 90 23 3d ad 69 00 be d1 39 b4 3c 4d cc 07 bd
       0.039932843 -0.12540312 0.022000225 -0.03315382
0002b0 b1 16 5a be fb cd c5 bd c4 a3 d9 bd cb 0c 36 be
       -0.21297719 -0.09658428 -0.10626939 -0.17778318
0002c0 0a 0c 84 bd fd d9 fa bd c7 1c bf bd 38 77 35 be
       -0.06447609 -0.12248609 -0.09331661 -0.1772126
0002d0 fd a7 c3 bd 19 de 55 be 51 34 e4 bc a6 c5 5d be
       -0.095535256 -0.20885505 -0.027856978 -0.21657428
0002e0 e4 96 85 bd 80 ff 1b be bd 8b 92 bd 0a 7d e5 bc
       -0.06522921 -0.15234184 -0.07155559 -0.028013725
0002f0 14 fa a8 bd d2 08 1c be f8 66 0c be 4c ea d6 bd
       -0.082508236 -0.1523774 -0.13711154 -0.10493907
000300 76 c2 73 bb 96 4c 21 be ab b3 ab bd ca 9c ec bd
       -0.0037194765 -0.15751871 -0.08383878 -0.11553343
000310 08 84 cc bd 68 34 d1 3b f6 03 0c be e6 1f 00 be
       -0.099861205 0.006384421 -0.13673386 -0.12512168
000320 c9 c6 c2 bd e7 00 e6 bd d2 64 ea bd ee 58 80 be
       -0.095105715 -0.11230641 -0.11445011 -0.25067848
000330 a1 df 3a bd 18 5d 9e bd e3 09 05 be 49 cd 43 bd
       -0.045623425 -0.077326 -0.12992053 -0.047803197
000340 55 39 b9 bd 5c 7d 69 3c 13 8d 00 be b0 12 0c be
       -0.09044138 0.014251079 -0.12553816 -0.13679004
000350 90 8d f9 3d a8 61 1c be 5c 49 74 bd e2 76 60 bd
       0.12185204 -0.15271628 -0.059640273 -0.054800875
000360 9f c2 b0 bd 52 d1 65 3d 88 89 c6 bd 57 b2 06 be
       -0.08630871 0.056107827 -0.09694201 -0.13153969
000370 94 03 ea bd 2e 3d 09 be 3a c0 a1 bd d9 1e f7 bd
       -0.11426464 -0.13402244 -0.078979924 -0.120664306
000380 34 d0 ca bd 57 a1 24 be 86 e4 42 be 19 d1 e8 bd
       -0.09902993 -0.16077171 -0.19032487 -0.11368007
000390 6a 0c 06 be 6e c4 0c be 36 ef e3 bd d3 bb 1f be
       -0.13090673 -0.13746807 -0.1112961 -0.15598993
0003a0 83 bb 0a be 2a 75 65 bd 24 eb 97 bd 3f d2 ba bd
       -0.13548093 -0.05601994 -0.074178964 -0.091221325
0003b0 62 6b 8a bd ea a2 99 be f4 e6 11 be 5d c9 f0 bd
       -0.06758763 -0.30007106 -0.14248258 -0.11757157
0003c0 38 41 58 be f2 70 9c bd 6b 98 e1 bd 88 3a c3 bd
       -0.21118629 -0.0763873 -0.110153995 -0.09532648
0003d0 df 75 c2 bd 38 96 e9 bd be 19 50 be 4e 3e d5 bd
       -0.094951384 -0.11405605 -0.2032232 -0.10412274
0003e0 d2 7a 45 be 75 0e d8 bd 48 e3 5c bc 4d 64 17 be
       -0.19285133 -0.105496325 -0.013481922 -0.14784355
0003f0 a6 79 37 be 7f 0c 98 bd 22 33 a9 bc 05 60 e0 bd
       -0.17917499 -0.074242584 -0.020654265 -0.10955814

projection.3.bias f4 [512]
000000 8f 72 62 be 83 60 b1 3d f1 f1 ae 3d af 69 31 be
       -0.22114013 0.08660986 0.085422404 -0.17325471
000010 e5 52 98 3d 3a 87 ab be 5c 3b 37 be 3d 32 50 be
       0.07437686 -0.33501607 -0.17893738 -0.20331664
000020 57 48 2b be 92 8d 50 3e fb 11 80 be 6f 69 45 bd
       -0.16726814 0.20366505 -0.25013718 -0.048196252
000030 2a 1b 77 3e ac 0f 87 be 78 67 9b bd e8 20 7d 3d
       0.24131456 -0.26379144 -0.075880945 0.06179896
000040 0a f5 24 3e d4 61 2c 3e 7d 0d de 3d 54 2e 87 3c
       0.161091 0.16834193 0.108424164 0.016501583
000050 b9 ba 9b bd f2 aa 14 3e f6 03 15 3d f9 7b 85 bd
       -0.07603974 0.14518335 0.03638073 -0.065177865
000060 d3 4b 85 be dc a9 27 3e 14 44 56 3d a1 7c 24 3e
       -0.26034412 0.1637339 0.052311018 0.16063167
000070 f0 7c 60 be 86 3d 64 3e ae b0 58 be 7b 4e d3 bd
       -0.2192266 0.22289094 -0.21161148 -0.10317703
000080 ba da 7d 3c 7e 6d 91 3e 4f 85 5b bc 1f 49 e7 bd
       0.015494043 0.28403848 -0.013398482 -0.112932436
000090 08 c0 a6 be 14 e9 12 3d e8 03 8b 3d db a3 19 3e
       -0.32568383 0.035866812 0.067878544 0.15003912
0000a0 ed 9b fb bd 93 72 c4 3d 3d 76 7d be 15 1f 20 be
       -0.122856 0.09592166 -0.24752136 -0.15636857
0000b0 2c ac 75 3e 54 0f b2 bd fc 39 59 bd d0 a9 01 be
       0.2399146 -0.0869433 -0.053033814 -0.12662435
0000c0 7d 84 54 3d 37 85 95 3d e7 b8 e4 3d c5 47 8a bd
       0.051884163 0.07300799 0.1116808 -0.0675197
0000d0 e2 eb 3b be bf 74 a6 3a 4f ed f6 bc 64 5f 81 3d
       -0.18351701 0.0012699588 -0.030142454 0.063170224
0000e0 05 80 17 3e 46 2d 83 be f9 d7 f5 bc 5b e3 3e be
       0.1479493 -0.25620478 -0.03001021 -0.18641417
0000f0 a8 36 c3 3d 3e 20 55 be f2 9e e8 3d 46 0a 8d be
       0.09531909 -0.2081308 0.113584414 -0.275469
000100 36 52 18 3e 5e e6 4b be 06 68 6a 3d b3 1b 41 3e
       0.14875111 -0.19912097 0.05722811 0.18858223
000110 27 27 97 be d1 91 30 be 83 38 cb bd 78 4a 87 be
       -0.29522058 -0.17243125 -0.09922888 -0.26424003
000120 38 bc fc 3d 0e 3e 90 3d b7 17 c7 bc 4d 0c b6 3d
       0.123405874 0.07043086 -0.0243033 0.08889065
000130 3f 1e 8d bd 46 ce ac bd 6a 61 08 be 6b 98 b5 3c
       -0.068905346 -0.08437781 -0.1331841 0.022167405
000140 bc 31 c5 3d 7a d4 ca 3d 62 c9 9b 3e 54 7b be bd
       0.09628627 0.09903808 0.3042708 -0.09300867
000150 1b 7f 17 3e 83 a4 68 3e 1d 35 98 bc f5 ee 68 be
       0.1479458 0.22719006 -0.018580014 -0.22747405
000160 fa 1b 8c bc 52 d8 24 3e 6c ad 09 be 32 60 0d 3d
       -0.017103184 0.16098145 -0.13445061 0.034515567
000170 88 3b 08 bc 4d ea 5c 3e 2f 9b f5 3c c2 df 5c 3c
       -0.008314975 0.21573754 0.029981224 0.013481082
000180 90 cf 65 3d 3c c1 b7 3b 3b 3a 2b 3d 1b 7f 36 bd
       0.05610615 0.005607752 0.04180358 -0.04455481
000190 f3 a4 e4 3c d5 b6 0e 3e 1e c0 97 3e 53 da 5f be
       0.027910685 0.13936932 0.2963876 -0.21860628
0001a0 49 9e 80 bc 87 52 82 3d e1 09 a0 be 53 4c 5d 3e
       -0.015700476 0.06363397 -0.31257537 0.21611147
0001b0 d2 ae 18 be dd 48 9b bd 11 f8 27 3d c2 d2 89 3b
       -0.14910439 -0.07582257 0.04100806 0.0042060325
0001c0 64 6c 65 be fe 57 19 3e d0 ef 0b 3e 9a 9a be 3d
       -0.22404629 0.14974973 0.136657 0.09306832
0001d0 7f a3 bd bd 58 f8 7f bd 19 5d 59 be 26 03 31 3d
       -0.092597 -0.0624927 -0.2122692 0.043215893
0001e0 9e 66 10 3e 25 03 cf 3b 4f 4d 02 3c 61 48 16 3e
       0.14101645 0.0063175135 0.007953002 0.14676048
0001f0 dd e3 97 bd 54 fd 80 be 91 18 70 3d 36 4f 1c be
       -0.07416508 -0.25193274 0.05861718 -0.15264592
000200 86 62 7b 3e 6a b5 d5 3d fe 39 69 3d d2 60 48 3e
       0.24549302 0.104349926 0.05694007 0.19568184
000210 32 44 8a be 66 6c f5 3c 13 f8 33 bd 99 b5 84 3e
       -0.27005154 0.029958915 -0.043937754 0.25919798
000220 09 10 05 3d 78 7e 02 bd 4f 25 c5 3d 06 48 37 3e
       0.032485995 -0.03185889 0.09626257 0.17898569
000230 b0 b5 0b be b3 2d 6f 3e 3e 75 10 bd c2 9d 06 3e
       -0.13643527 0.23357277 -0.03526806 0.13146117
000240 d4 65 0c be 3a f0 34 be fa 65 6d bd 0c bd 25 be
       -0.1371072 -0.17669764 -0.05795858 -0.16185397
000250 bf 50 3a be 2f 98 8f bd 3e 36 50 3b c3 99 3c 3e
       -0.18194865 -0.070114486 0.0031770612 0.1841803
000260 ce 2a 04 3e 45 db 22 3e c5 04 4d be 99 6e fc 3c
       0.12906954 0.15903957 -0.2002135 0.030814456
000270 11 36 ef 3d a6 77 c1 3d ef d6 4b be 08 5d 24 be
       0.11680234 0.09446649 -0.1990621 -0.16051114
000280 4a 84 22 3c 26 76 2b 3e 41 f5 e0 3d 9e 3b 27 be
       0.0099192355 0.16744289 0.109842785 -0.16331336
000290 8c 94 5e be f7 33 fa bc 15 5c 24 bd a4 3d 0e be
       -0.21736354 -0.030542357 -0.04012688 -0.13890702
0002a0 77 8c ae bd 29 cb 8a 3e a0 51 18 3e 0a 21 54 3e
       -0.08522885 0.27108124 0.14874887 0.20715728
0002b0 75 e5 7b 3e 18 1c 9c bc bb 8e 46 3d 68 57 df 3c
       0.2459925 -0.019056365 0.048475962 0.027263358
0002c0 4a 71 e2 3d 95 d9 c1 3d e0 e7 3b 3e a1 0f 20 3d
       0.110567644 0.094653286 0.18350172 0.039077405
0002d0 3c 94 84 bd 29 0b 3e 3e 4e fb 94 bd f7 b6 80 be
       -0.06473586 0.18558945 -0.07274495 -0.2513959
0002e0 7a 5a a3 be 7b 81 64 3d 84 b9 c5 3d ed b3 45 bd
       -0.31904966 0.055787545 0.09654525 -0.048267294
0002f0 ee 45 3a be c5 3f 7e 3e 96 18 dc bd 07 c7 cc bd
       -0.18190739 0.24829014 -0.10746877 -0.09998899
000300 fa 0c 57 3d 32 1f 45 be 4b db fc 3d 98 e7 d5 3d
       0.05250261 -0.19250181 0.12346514 0.104445636
000310 cd ab 0e 3e 69 0d 2b bd 0e d4 35 bd 43 57 0c be
       0.13932724 -0.041760836 -0.044391684 -0.13705163
000320 d0 e2 e8 bd d7 59 df bd 89 66 38 3d f0 be 86 3c
       -0.11371386 -0.109058075 0.04501966 0.016448468
000330 3b 0d d2 bd 0b 75 2e 3d f6 2a 15 3e fd c2 2d 3c
       -0.1025643 0.04259209 0.1456717 0.010605571
000340 2f 3e 0c be d6 06 0e be dc f8 74 3d 0b b0 ce 3d
       -0.13695596 -0.13869795 0.059807643 0.10092171
000350 8d cd 4d b9 ea 38 bf bc 2f 14 84 bd e1 fd 83 bd
       -0.00019626897 -0.023342568 -0.06449162 -0.06444908
000360 d4 e0 6b be 5b c0 2f bd c9 51 64 3d 6f 1b e8 3d
       -0.23034984 -0.042908054 0.05574206 0.113333575
000370 d1 b2 0c 3d e3 2a d1 bc ba b4 75 be 80 35 b4 bd
       0.03435022 -0.025533145 -0.23994723 -0.08799267
000380 41 e3 d4 bd 24 5c d1 bc 89 d1 5c 3e c4 a8 09 3e
       -0.10394908 -0.025556631 0.21564306 0.13443285
000390 7d 64 24 be 01 23 ea bc 23 47 86 bd f2 42 a0 3c
       -0.16053958 -0.028581144 -0.06556537 0.019563172
0003a0 5e db a3 bd 59 bb a3 bd 73 80 ab 3d 61 62 e3 bd
       -0.08000825 -0.07994718 0.08374109 -0.11102749
0003b0 de 86 0f 3d 83 95 6e be 45 72 11 bd 5c d1 59 be
       0.03504073 -0.23299222 -0.035509367 -0.2127127
0003c0 73 30 1b 3e 82 b0 00 3e 9d 35 0b 3d e4 48 c1 3d
       0.151552 0.12567332 0.033986676 0.09437731
0003d0 07 f7 4d 3d d3 d9 74 bd fa 88 bb 3d 74 68 4a bd
       0.05028441 -0.059778046 0.091569856 -0.04941602
0003e0 a2 af 8b bd 4a 25 48 be 6b b0 30 3e d4 66 38 3d
       -0.06820609 -0.19545475 0.17254798 0.04501994
0003f0 7b f1 df bd 1f da fb 3d 8a 9b 69 bd b0 7d 15 bd
       -0.109347306 0.12297463 -0.0570331 -0.036496818
